net.pkl (torch, 2575 bytes, 4 tensors)

weight f4 [10, 2]
000000 68 48 8a 3d 5d 85 f0 be 76 ee 00 3f be 02 47 3e
       0.06752092 -0.46976748 0.5036386 0.1943464
000010 21 de 72 3d 28 b4 2c 3f b0 76 1d be af 9f b1 be
       0.05929387 0.67462397 -0.15377307 -0.3469214
000020 42 16 1c bc c5 f1 0e bf 28 70 ce 3e 1c d3 05 bf
       -0.009526791 -0.5583766 0.40319943 -0.5227525
000030 ef 39 f0 3c 2e 7e d4 bd 51 ec 05 3f 69 d3 65 be
       0.0293245 -0.10375629 0.52313715 -0.22443928
000040 d4 80 0d bf 6e ca 34 bf e9 8c 1f 3f 37 ab 03 3e
       -0.552747 -0.70621383 0.62324387 0.12858282

bias f4 [10]
000000 87 b4 29 bf 4f a3 21 bc 4f 76 ab be 20 8c c8 be
       -0.6629109 -0.009865596 -0.334887 -0.39169407
000010 37 98 06 bf 36 fa 3b 3e e4 85 2d be 4a e3 a5 be
       -0.5257601 0.18357167 -0.16945606 -0.3239997
000020 95 4b d0 3d 20 2b 26 bf
       0.10170666 -0.64909554

weight f4 [2, 10]
000000 fc 60 28 3d 0d 13 ce 3d 84 7d 1b bd 93 a3 b4 be
       0.041108117 0.100622274 -0.037961498 -0.35281047
000010 9d 5b 5b 3e 76 cf 60 3d 9d 8b 44 3d 57 82 a3 3d
       0.21421666 0.05488535 0.047984708 0.07983845
000020 17 e1 8a bd fb 9b a1 3d d8 36 4e 3e b6 a7 fa bd
       -0.06781214 0.07891079 0.20138109 -0.122390196
000030 fa 66 6f be 38 de c3 bd a6 a5 66 3e a0 05 9b 3e
       -0.23379126 -0.09563869 0.22524127 0.3027773
000040 c9 b7 2b be 85 b7 2e 3e 23 99 a3 3e ba 1d 9f be
       -0.16769327 0.17062195 0.31952772 -0.31077367

bias f4 [2]
000000 4e 2b 13 3e 81 42 b6 bd
       0.14371988 -0.08899403
